Model: "functional_1"
_________________________________________________________________
Layer (type)                 Output Shape              Param #   
=================================================================
input_1 (InputLayer)         [(None, 1800)]            0         
_________________________________________________________________
dense (Dense)                (None, 128)               230528    
_________________________________________________________________
dense_1 (Dense)              (None, 64)                8256      
_________________________________________________________________
dense_2 (Dense)              (None, 32)                2080      
_________________________________________________________________
dense_3 (Dense)              (None, 64)                2112      
_________________________________________________________________
dense_4 (Dense)              (None, 128)               8320      
_________________________________________________________________
dense_5 (Dense)              (None, 1800)              232200    
=================================================================
Total params: 483,496
Trainable params: 483,496
Non-trainable params: 0
_________________________________________________________________
None
optimizer: <tensorflow.python.keras.optimizer_v2.adam.Adam object at 0x0000021F49E22940>
loss: mse
encode_activations: ['elu', 'elu', 'relu']
decode_activations: ['relu', 'elu', 'elu']
Epoch 1/130
…
