Model: "model"
_________________________________________________________________
 Layer (type)                Output Shape              Param #   
=================================================================
 input_1 (InputLayer)        [(None, 224)]             0         
                                                                 
 reshape (Reshape)           (None, 224, 1)            0         
                                                                 
 conv1d (Conv1D)             (None, 224, 16)           64        
                                                                 
 average_pooling1d (AverageP  (None, 112, 16)          0         
 ooling1D)                                                       
                                                                 
 conv1d_1 (Conv1D)           (None, 112, 16)           784       
                                                                 
 average_pooling1d_1 (Averag  (None, 56, 16)           0         
 ePooling1D)                                                     
                                                                 
 dropout (Dropout)           (None, 56, 16)            0         
                                                                 
 conv1d_2 (Conv1D)           (None, 56, 8)             392       
                                                                 
 average_pooling1d_2 (Averag  (None, 28, 8)            0         
 ePooling1D)                                                     
                                                                 
 dropout_1 (Dropout)         (None, 28, 8)             0         
                                                                 
 conv1d_3 (Conv1D)           (None, 28, 4)             100       
                                                                 
 average_pooling1d_3 (Averag  (None, 14, 4)            0         
 ePooling1D)                                                     
                                                                 
 conv1d_4 (Conv1D)           (None, 14, 2)             26        
                                                                 
 flatten (Flatten)           (None, 28)                0         
                                                                 
 dense (Dense)               (None, 256)               7424      
                                                                 
 dense_1 (Dense)             (None, 128)               32896     
                                                                 
 dense_2 (Dense)             (None, 64)                8256      
                                                                 
 dense_3 (Dense)             (None, 32)                2080      
                                                                 
 dense_4 (Dense)             (None, 64)                2112      
                                                                 
 dense_5 (Dense)             (None, 128)               8320      
                                                                 
 dense_6 (Dense)             (None, 256)               33024     
                                                                 
 reshape_1 (Reshape)         (None, 256, 1)            0         
                                                                 
 conv1d_transpose (Conv1DTra  (None, 256, 4)           16        
 nspose)                                                         
                                                                 
 up_sampling1d (UpSampling1D  (None, 512, 4)           0         
 )                                                               
                                                                 
 conv1d_transpose_1 (Conv1DT  (None, 512, 8)           104       
 ranspose)                                                       
                                                                 
 up_sampling1d_1 (UpSampling  (None, 1024, 8)          0         
 1D)                                                             
                                                                 
 conv1d_transpose_2 (Conv1DT  (None, 1024, 16)         400       
 ranspose)                                                       
                                                                 
 up_sampling1d_2 (UpSampling  (None, 2048, 16)         0         
 1D)                                                             
                                                                 
 conv1d_transpose_3 (Conv1DT  (None, 2048, 16)         784       
 ranspose)                                                       
                                                                 
 up_sampling1d_3 (UpSampling  (None, 4096, 16)         0         
 1D)                                                             
                                                                 
 flatten_1 (Flatten)         (None, 65536)             0         
                                                                 
 dense_7 (Dense)             (None, 224)               14680288  
                                                                 
=================================================================
Total params: 14,777,070
Trainable params: 14,777,070
Non-trainable params: 0
_________________________________________________________________
None
optimizer: <keras.optimizers.optimizer_experimental.adam.Adam object at 0x00000218105477C0>
loss: mse
encode_activations: ['LeakyReLU', 'LeakyReLU', 'LeakyReLU', 'LeakyReLU', 'LeakyReLU', 'LeakyReLU', 'LeakyReLU', 'LeakyReLU', 'relu']
…
