Model: "model"
_________________________________________________________________
 Layer (type)                Output Shape              Param #   
=================================================================
 input_1 (InputLayer)        [(None, 225)]             0         
                                                                 
 dense (Dense)               (None, 256)               57856     
                                                                 
 dense_1 (Dense)             (None, 128)               32896     
                                                                 
 dropout (Dropout)           (None, 128)               0         
                                                                 
 dense_2 (Dense)             (None, 64)                8256      
                                                                 
 dropout_1 (Dropout)         (None, 64)                0         
                                                                 
 dense_3 (Dense)             (None, 32)                2080      
                                                                 
 dense_4 (Dense)             (None, 64)                2112      
                                                                 
 dense_5 (Dense)             (None, 128)               8320      
                                                                 
 dense_6 (Dense)             (None, 256)               33024     
                                                                 
 dense_7 (Dense)             (None, 225)               57825     
                                                                 
=================================================================
Total params: 202,369
Trainable params: 202,369
Non-trainable params: 0
_________________________________________________________________
None
optimizer: <keras.optimizers.optimizer_experimental.adam.Adam object at 0x000001D0DECD5A80>
loss: <keras.losses.Huber object at 0x000001D0DF353340>
…
