Model: "model"
_________________________________________________________________
 Layer (type)                Output Shape              Param #   
=================================================================
 input_1 (InputLayer)        [(None, 450)]             0         
                                                                 
 dense (Dense)               (None, 512)               230912    
                                                                 
 dense_1 (Dense)             (None, 256)               131328    
                                                                 
 dense_2 (Dense)             (None, 128)               32896     
                                                                 
 dropout (Dropout)           (None, 128)               0         
                                                                 
 dense_3 (Dense)             (None, 64)                8256      
                                                                 
 dropout_1 (Dropout)         (None, 64)                0         
                                                                 
 dense_4 (Dense)             (None, 32)                2080      
                                                                 
 dense_5 (Dense)             (None, 64)                2112      
                                                                 
 dense_6 (Dense)             (None, 128)               8320      
                                                                 
 dense_7 (Dense)             (None, 256)               33024     
                                                                 
 dense_8 (Dense)             (None, 512)               131584    
                                                                 
 dense_9 (Dense)             (None, 450)               230850    
                                                                 
=================================================================
Total params: 811,362
Trainable params: 811,362
Non-trainable params: 0
_________________________________________________________________
None
optimizer: <keras.optimizers.optimizer_experimental.adam.Adam object at 0x0000019710E15AE0>
loss: <keras.losses.Huber object at 0x00000197114A33A0>
…
