Model: "model"
_________________________________________________________________
 Layer (type)                Output Shape              Param #   
=================================================================
 input_1 (InputLayer)        [(None, 450)]             0         
                                                                 
 dense (Dense)               (None, 128)               57728     
                                                                 
 dropout (Dropout)           (None, 128)               0         
                                                                 
 dense_1 (Dense)             (None, 64)                8256      
                                                                 
 dropout_1 (Dropout)         (None, 64)                0         
                                                                 
 dense_2 (Dense)             (None, 32)                2080      
                                                                 
 dense_3 (Dense)             (None, 64)                2112      
                                                                 
 dense_4 (Dense)             (None, 128)               8320      
                                                                 
 dense_5 (Dense)             (None, 450)               58050     
                                                                 
=================================================================
Total params: 136,546
Trainable params: 136,546
Non-trainable params: 0
_________________________________________________________________
None
optimizer: <keras.optimizers.optimizer_experimental.adam.Adam object at 0x0000025FD48C5570>
loss: mse
encode_activations: ['elu', 'elu', 'relu']
…
