Model: "model"
_________________________________________________________________
 Layer (type)                Output Shape              Param #   
=================================================================
 input_1 (InputLayer)        [(None, 225)]             0         
                                                                 
 reshape (Reshape)           (None, 225, 1)            0         
                                                                 
 conv1d (Conv1D)             (None, 225, 16)           64        
                                                                 
 max_pooling1d (MaxPooling1D  (None, 112, 16)          0         
 )                                                               
                                                                 
 flatten (Flatten)           (None, 1792)              0         
                                                                 
 dense (Dense)               (None, 256)               459008    
                                                                 
 dense_1 (Dense)             (None, 128)               32896     
                                                                 
 dropout (Dropout)           (None, 128)               0         
                                                                 
 dense_2 (Dense)             (None, 64)                8256      
                                                                 
 dropout_1 (Dropout)         (None, 64)                0         
                                                                 
 dense_3 (Dense)             (None, 32)                2080      
                                                                 
 dense_4 (Dense)             (None, 64)                2112      
                                                                 
 dense_5 (Dense)             (None, 128)               8320      
                                                                 
 dense_6 (Dense)             (None, 256)               33024     
                                                                 
 dense_7 (Dense)             (None, 225)               57825     
                                                                 
=================================================================
Total params: 603,585
Trainable params: 603,585
Non-trainable params: 0
_________________________________________________________________
None
optimizer: <keras.optimizers.optimizer_experimental.adam.Adam object at 0x000001EC3E0C20B0>
loss: <keras.losses.Huber object at 0x000001EC3E727970>
…
