Model: "functional_1"
_________________________________________________________________
Layer (type)                 Output Shape              Param #   
=================================================================
input_1 (InputLayer)         [(None, 900)]             0         
_________________________________________________________________
dense (Dense)                (None, 128)               115328    
_________________________________________________________________
dense_1 (Dense)              (None, 64)                8256      
_________________________________________________________________
dense_2 (Dense)              (None, 32)                2080      
_________________________________________________________________
dense_3 (Dense)              (None, 64)                2112      
_________________________________________________________________
dense_4 (Dense)              (None, 128)               8320      
_________________________________________________________________
dense_5 (Dense)              (None, 900)               116100    
=================================================================
Total params: 252,196
Trainable params: 252,196
Non-trainable params: 0
_________________________________________________________________
None
{'optimizer': <tensorflow.python.keras.optimizer_v2.adam.Adam object at 0x0000013ED5722940>, 'loss': 'mse', 'output_activation': 'linear'}
Epoch 1/130

  1/100 [..............................] - ETA: 0s - loss: 0.0170
…
