Model: "model"
_________________________________________________________________
 Layer (type)                Output Shape              Param #   
=================================================================
 input_1 (InputLayer)        [(None, 450)]             0         
                                                                 
 dense (Dense)               (None, 256)               115456    
                                                                 
 dense_1 (Dense)             (None, 128)               32896     
                                                                 
 dropout (Dropout)           (None, 128)               0         
                                                                 
 dense_2 (Dense)             (None, 64)                8256      
                                                                 
 dropout_1 (Dropout)         (None, 64)                0         
                                                                 
 dense_3 (Dense)             (None, 32)                2080      
                                                                 
 dense_4 (Dense)             (None, 64)                2112      
                                                                 
 dense_5 (Dense)             (None, 128)               8320      
                                                                 
 dense_6 (Dense)             (None, 256)               33024     
                                                                 
 dense_7 (Dense)             (None, 450)               115650    
                                                                 
=================================================================
Total params: 317,794
Trainable params: 317,794
Non-trainable params: 0
_________________________________________________________________
None
optimizer: <keras.optimizers.optimizer_experimental.adam.Adam object at 0x000001F89F6998A0>
loss: <keras.losses.Huber object at 0x000001F89FD23160>
…
