Model: "model"
_________________________________________________________________
 Layer (type)                Output Shape              Param #   
=================================================================
 input_1 (InputLayer)        [(None, 224)]             0         
                                                                 
 reshape (Reshape)           (None, 224, 1)            0         
                                                                 
 conv1d (Conv1D)             (None, 224, 16)           64        
                                                                 
 average_pooling1d (AverageP  (None, 112, 16)          0         
 ooling1D)                                                       
                                                                 
 conv1d_1 (Conv1D)           (None, 112, 16)           784       
                                                                 
 average_pooling1d_1 (Averag  (None, 56, 16)           0         
 ePooling1D)                                                     
                                                                 
 dropout (Dropout)           (None, 56, 16)            0         
                                                                 
 conv1d_2 (Conv1D)           (None, 56, 8)             392       
                                                                 
 average_pooling1d_2 (Averag  (None, 28, 8)            0         
 ePooling1D)                                                     
                                                                 
 dropout_1 (Dropout)         (None, 28, 8)             0         
                                                                 
 conv1d_3 (Conv1D)           (None, 28, 4)             100       
                                                                 
 average_pooling1d_3 (Averag  (None, 14, 4)            0         
 ePooling1D)                                                     
                                                                 
 conv1d_4 (Conv1D)           (None, 14, 2)             26        
                                                                 
 conv1d_transpose_2 (Conv1DT  (None, 14, 16)           112       
 ranspose)                                                       
                                                                 
 up_sampling1d_2 (UpSampling  (None, 28, 16)           0         
 1D)                                                             
                                                                 
 conv1d_transpose_3 (Conv1DT  (None, 28, 16)           784       
 ranspose)                                                       
                                                                 
 up_sampling1d_3 (UpSampling  (None, 56, 16)           0         
 1D)                                                             
                                                                 
 flatten (Flatten)           (None, 896)               0         
                                                                 
 dense (Dense)               (None, 224)               200928    
                                                                 
=================================================================
Total params: 203,190
Trainable params: 203,190
Non-trainable params: 0
_________________________________________________________________
None
optimizer: <keras.optimizers.optimizer_experimental.adam.Adam object at 0x000002164EDCAE00>
loss: mse
encode_activations: ['LeakyReLU', 'LeakyReLU', 'LeakyReLU', 'LeakyReLU', 'LeakyReLU', 'LeakyReLU', 'LeakyReLU', 'relu']
…
