Model: "model"
_________________________________________________________________
 Layer (type)                Output Shape              Param #   
=================================================================
 input_1 (InputLayer)        [(None, 224)]             0         
                                                                 
 reshape (Reshape)           (None, 224, 1)            0         
                                                                 
 conv1d (Conv1D)             (None, 224, 16)           64        
                                                                 
 average_pooling1d (AverageP  (None, 112, 16)          0         
 ooling1D)                                                       
                                                                 
 flatten (Flatten)           (None, 1792)              0         
                                                                 
 dense (Dense)               (None, 256)               459008    
                                                                 
 dense_1 (Dense)             (None, 128)               32896     
                                                                 
 dropout (Dropout)           (None, 128)               0         
                                                                 
 dense_2 (Dense)             (None, 64)                8256      
                                                                 
 dropout_1 (Dropout)         (None, 64)                0         
                                                                 
 dense_3 (Dense)             (None, 32)                2080      
                                                                 
 dense_4 (Dense)             (None, 64)                2112      
                                                                 
 dense_5 (Dense)             (None, 128)               8320      
                                                                 
 dense_6 (Dense)             (None, 256)               33024     
                                                                 
 reshape_1 (Reshape)         (None, 256, 1)            0         
                                                                 
 conv1d_transpose (Conv1DTra  (None, 256, 16)          64        
 nspose)                                                         
                                                                 
 up_sampling1d (UpSampling1D  (None, 512, 16)          0         
 )                                                               
                                                                 
 flatten_1 (Flatten)         (None, 8192)              0         
                                                                 
 dense_7 (Dense)             (None, 224)               1835232   
                                                                 
=================================================================
Total params: 2,381,056
Trainable params: 2,381,056
Non-trainable params: 0
_________________________________________________________________
None
optimizer: <keras.optimizers.optimizer_experimental.adam.Adam object at 0x0000017F50192830>
loss: <keras.losses.Huber object at 0x0000017F5025C310>
…
