Model: "model"
_________________________________________________________________
 Layer (type)                Output Shape              Param #   
=================================================================
 input_1 (InputLayer)        [(None, 900)]             0         
                                                                 
 dense (Dense)               (None, 128)               115328    
                                                                 
 dropout (Dropout)           (None, 128)               0         
                                                                 
 dense_1 (Dense)             (None, 64)                8256      
                                                                 
 dropout_1 (Dropout)         (None, 64)                0         
                                                                 
 dense_2 (Dense)             (None, 32)                2080      
                                                                 
 dense_3 (Dense)             (None, 64)                2112      
                                                                 
 dense_4 (Dense)             (None, 128)               8320      
                                                                 
 dense_5 (Dense)             (None, 900)               116100    
                                                                 
=================================================================
Total params: 252,196
Trainable params: 252,196
Non-trainable params: 0
_________________________________________________________________
None
optimizer: <keras.optimizers.optimizer_experimental.adam.Adam object at 0x000001FAE2D8FF70>
loss: mse
encode_activations: ['elu', 'elu', 'relu']
…
