Model: "model"
_________________________________________________________________
 Layer (type)                Output Shape              Param #   
=================================================================
 input_1 (InputLayer)        [(None, 450)]             0         
                                                                 
 reshape (Reshape)           (None, 450, 1)            0         
                                                                 
 conv1d (Conv1D)             (None, 450, 16)           64        
                                                                 
 max_pooling1d (MaxPooling1D  (None, 225, 16)          0         
 )                                                               
                                                                 
 flatten (Flatten)           (None, 3600)              0         
                                                                 
 dense (Dense)               (None, 256)               921856    
                                                                 
 dense_1 (Dense)             (None, 128)               32896     
                                                                 
 dropout (Dropout)           (None, 128)               0         
                                                                 
 dense_2 (Dense)             (None, 64)                8256      
                                                                 
 dropout_1 (Dropout)         (None, 64)                0         
                                                                 
 dense_3 (Dense)             (None, 32)                2080      
                                                                 
 dense_4 (Dense)             (None, 64)                2112      
                                                                 
 dense_5 (Dense)             (None, 128)               8320      
                                                                 
 dense_6 (Dense)             (None, 256)               33024     
                                                                 
 reshape_1 (Reshape)         (None, 256, 1)            0         
                                                                 
 conv1d_1 (Conv1D)           (None, 256, 16)           64        
                                                                 
 max_pooling1d_1 (MaxPooling  (None, 128, 16)          0         
 1D)                                                             
                                                                 
 flatten_1 (Flatten)         (None, 2048)              0         
                                                                 
 dense_7 (Dense)             (None, 450)               922050    
                                                                 
=================================================================
Total params: 1,930,722
Trainable params: 1,930,722
Non-trainable params: 0
_________________________________________________________________
None
optimizer: <keras.optimizers.optimizer_experimental.adam.Adam object at 0x000001D0A91D2740>
loss: <keras.losses.Huber object at 0x000001D0A988C040>
…
