Model: "model"
_________________________________________________________________
 Layer (type)                Output Shape              Param #   
=================================================================
 input_1 (InputLayer)        [(None, 224)]             0         
                                                                 
 reshape (Reshape)           (None, 224, 1)            0         
                                                                 
 conv1d (Conv1D)             (None, 224, 2)            8         
                                                                 
 average_pooling1d (AverageP  (None, 112, 2)           0         
 ooling1D)                                                       
                                                                 
 conv1d_1 (Conv1D)           (None, 112, 4)            28        
                                                                 
 average_pooling1d_1 (Averag  (None, 56, 4)            0         
 ePooling1D)                                                     
                                                                 
 dropout (Dropout)           (None, 56, 4)             0         
                                                                 
 conv1d_2 (Conv1D)           (None, 56, 8)             104       
                                                                 
 average_pooling1d_2 (Averag  (None, 28, 8)            0         
 ePooling1D)                                                     
                                                                 
 dropout_1 (Dropout)         (None, 28, 8)             0         
                                                                 
 conv1d_3 (Conv1D)           (None, 28, 16)            400       
                                                                 
 average_pooling1d_3 (Averag  (None, 14, 16)           0         
 ePooling1D)                                                     
                                                                 
 conv1d_4 (Conv1D)           (None, 14, 32)            1568      
                                                                 
 flatten (Flatten)           (None, 448)               0         
                                                                 
 dense (Dense)               (None, 256)               114944    
                                                                 
 dense_1 (Dense)             (None, 128)               32896     
                                                                 
 dense_2 (Dense)             (None, 64)                8256      
                                                                 
 dense_3 (Dense)             (None, 32)                2080      
                                                                 
 dense_4 (Dense)             (None, 64)                2112      
                                                                 
 dense_5 (Dense)             (None, 128)               8320      
                                                                 
 dense_6 (Dense)             (None, 256)               33024     
                                                                 
 dense_7 (Dense)             (None, 448)               115136    
                                                                 
 reshape_1 (Reshape)         (None, 14, 32)            0         
                                                                 
 conv1d_transpose (Conv1DTra  (None, 14, 16)           1552      
 nspose)                                                         
                                                                 
 up_sampling1d (UpSampling1D  (None, 28, 16)           0         
 )                                                               
                                                                 
 conv1d_transpose_1 (Conv1DT  (None, 28, 8)            392       
 ranspose)                                                       
                                                                 
 up_sampling1d_1 (UpSampling  (None, 56, 8)            0         
 1D)                                                             
                                                                 
 conv1d_transpose_2 (Conv1DT  (None, 56, 4)            100       
 ranspose)                                                       
                                                                 
 up_sampling1d_2 (UpSampling  (None, 112, 4)           0         
 1D)                                                             
                                                                 
 conv1d_transpose_3 (Conv1DT  (None, 112, 2)           26        
 ranspose)                                                       
                                                                 
 up_sampling1d_3 (UpSampling  (None, 224, 2)           0         
 1D)                                                             
                                                                 
 conv1d_transpose_4 (Conv1DT  (None, 224, 1)           7         
 ranspose)                                                       
                                                                 
 flatten_1 (Flatten)         (None, 224)               0         
                                                                 
=================================================================
Total params: 320,953
Trainable params: 320,953
Non-trainable params: 0
_________________________________________________________________
None
optimizer: <keras.optimizers.optimizer_experimental.adam.Adam object at 0x000002AE17942710>
loss: mse
encode_activations: ['LeakyReLU', 'LeakyReLU', 'LeakyReLU', 'LeakyReLU', 'LeakyReLU', 'LeakyReLU', 'LeakyReLU', 'LeakyReLU', 'relu']
…
